checkpoint.pth (torch, 30509 bytes, 7 tensors)

fc1.weight f4 [64, 37]
00000000: 3e28 e9bd 6027 ba3d 6879 94bb f7f9 9c3c
00000010: adac d13d 3ef1 9cbe e32a 003e 19a2 b63e
00000020: 82c7 4a3e bd9d 3cbe 170c 31bd a75d 733d
00000030: 2909 27bd 034b a5be ae60 8dbe f465 3e3c
00000040: 1175 033e 41fc 1b3e 1144 ecbd 574c 45be
00000050: eb7d c83a 7809 0c3e d0f6 fd3d 831a e43c
00000060: c705 913d 12ec ccbd 88df f03d 8757 f83d
00000070: 8f44 3cbe f060 abbe 7ee1 cabd 3267 5f3e
00000080: 5754 a03d 6403 3abd f5c6 0fbe 0415 1fbd
00000090: f65d 31bb eb64 d03c 5a58 cd3d 14af 5e3c
000000a0: 1a3b 19be b8cc 873d 4b39 753d 812c bfbe
000000b0: eb84 a1be 5ba9 aebd 553a 693e f240 d93d
000000c0: 7643 2bbe 1be2 23bd 7975 94bd 13a4 2e3d
000000d0: 72a4 313d 98e7 9bbd ba4b edbd a75b 98bd
000000e0: 640f 36be d220 d7bd f21e 4dbe 3a8a 54be
000000f0: 9802 71bd deee d6be 1cdf a7bd 6090 63be
00000100: 16cf f43d b7aa 65bd 4bce a43d f555 af3d
00000110: 12af abbd 7aa8 17be e86c 0b3d bca8 e4bd
00000120: 3a12 493e 68bc 273d b054 873e fd6b 0bbe
00000130: 909c db3c 84bd a93d 7aae e4be 04b6 33be
00000140: 0c7c c23d e636 023e 12d8 fcbc 9d38 64bd
00000150: 45cc 20be 9684 47bd 68b9 fa3d 71ab 103e
00000160: 1313 ed3d b59a 29be 96db b83d da85 da3d
00000170: d4aa 2c3e a308 db3e 45eb 8ebe aeae 9c3b
00000180: a7fa d33d a3bf a03d a2f5 50be 5780 32be
00000190: c361 ad3d 9581 153e 3c2c fc3d ef0a fe3c
000001a0: 089c 54be cf60 fdbc 77d6 a53d 4d67 cebd
000001b0: 0b90 3dbd 8638 9dbc 481d 78bb 2f60 2f3e
000001c0: 8277 85be c52c 413e 07af 1f3e 5891 acbe
000001d0: 1467 c7bd 506b 2bbd 78ac ba3d 7196 f23d
000001e0: 2008 e03d 5092 b43d 19f5 dbbc 1606 10bc
000001f0: 3210 91be c861 11bd 6684 b3bd acc0 573b
00000200: d18c 5bbd d4c3 3dbd b47c 6fbe 2725 083e
00000210: c5c8 88be 8593 cd3c 5af9 933b 34f5 00be
00000220: 7dc8 483d 9ebd e8bd 8795 ee3d a2f9 083d
00000230: 3b99 833e 089d 5fbd d0bc cb3b 4cb8 873e
00000240: 156d 5abd 332b 2dbe 37dc 2dbc bd9e 023d
00000250: 795d f5bd aa6b 07bd 679a 1fbe 1759 54bd
00000260: 7435 c1bc fb7f cc3e d72c aebe 2ed0 f0be
00000270: f27b 00be eec5 c0bf 77c1 aa3b 7f4b 283c
00000280: be78 d33c b1c4 8e3a 8558 b0bd d13d 0ebe
00000290: 5fda 413d 3c66 8c3b a6f9 0c3e 8ae3 d83d
000002a0: 2a34 bbbd 9fe1 a33d b178 1f3d 5875 d83d
000002b0: eb10 423e 482d b33d cde1 3fbd 3cf5 153e
000002c0: 11d3 113e 74aa 023e efb6 2a3e ce1e 81bc
000002d0: 9198 533c dc20 b43d c4be fdbd 288b 6fbc
000002e0: 6828 063b ca87 e83c a4d4 f13c 8c9a e1bd
000002f0: 0b48 76be 148b 003e 4935 863e d487 2fbe
00000300: af9e bcbe c27c c4bd 2c28 20bf ed89 0fbe
00000310: 6cdd 87bd 2fa3 e63c 0cd5 17bc 22a5 be3d
00000320: 3f99 a9bd 57a3 ef3d b1b6 c1bd 8235 d0bd
00000330: e397 4abc 3b34 49bd c929 263e c9fc 883d
00000340: 2e37 c03d 1256 3d3d 301d 943b cc3a 483c
00000350: e5fb 793d 7553 34be 880d b5bd 5dfd ba3d
00000360: cc38 babd 2980 18bd 754d c9be 70dc 6bbf
00000370: 8388 f7bc 30e2 383c 9245 06be aa10 6f3e
00000380: f105 d3bd ad16 2dbd 1afe e3be 91ff 86bd
00000390: 68fd 8cbe 8b78 483e 1fff a3bb a4b7 5d3e
000003a0: f0bf 1cbe 3913 fb3d ae42 1f3e dc8f a63d
000003b0: edf4 263e 94ee b2be e7ce 843c 378b 5f3e
000003c0: ecda 96bc 6c5b fdbc 9644 87bd 4e32 e0bd
000003d0: 9d1e 4b3e 95f7 79be 082a 003e 175b 08be
000003e0: 3754 56be 7129 893d da58 2cbe b63d b3bd
000003f0: 4e40 0dbd 2d18 003c af02 cf3d 325b 173d
-0.11384629 0.090895414 -0.0045310743 0.019162161 0.102380134 -0.30652803 0.1251636 0.35670546
0.19802669 -0.18419547 -0.04322442 0.059415486 -0.04078022 -0.32283792 -0.27612823 0.011620987
0.12837626 0.15232946 -0.1153642 -0.19267403 0.0015296316 0.13675487 0.124005914 0.027844673
0.0708118 -0.10005964 0.11761385 0.121260695 -0.18385528 -0.33472395 -0.099062905 0.2181671
0.078285865 -0.04541339 -0.1404074 -0.0388384 -0.0027064062 0.025438746 0.10026617 0.013591547
-0.14963952 0.06630844 0.059869092 -0.3733864 -0.3154672 -0.08528396 0.22776158 0.106080905
-0.16724953 -0.040010553 -0.07248969 0.042636942 0.043369718 -0.076125324 -0.11586709 -0.07439356
-0.17779309 -0.10504307 -0.20031336 -0.20755854 -0.058840364 -0.41979116 -0.081968516 -0.22223043
0.11953561 -0.05607101 0.0804716 0.08561317 -0.083830014 -0.14810362 0.034039408 -0.11164996
0.19635859 0.040951163 0.264318 -0.13615413 0.026808053 0.082881 -0.44664365 -0.17549902
0.09496316 0.12716255 -0.03086475 -0.055718053 -0.15702923 -0.04871043 0.12242395 0.141279
0.11575904 -0.16562922 0.09026258 0.106700614 0.16862041 0.42780027 -0.2791387 0.0047815656
0.103505425 0.07849052 -0.20406201 -0.1743177 0.08465912 0.14600213 0.123131245 0.031011073
-0.20762646 -0.030929951 0.080975465 -0.10078297 -0.04627995 -0.019191992 -0.003785925 0.17126535
-0.2606774 0.18864734 0.15594111 -0.33704638 -0.097364575 -0.041850388 0.09114927 0.11845101
0.1093905 0.088169694 -0.02685027 -0.0087905135 -0.2833267 -0.035493642 -0.087654874 0.0032921238
-0.05360109 -0.046329334 -0.23387414 0.13295422 -0.26715675 0.025094757 0.004515809 -0.12593538
0.049019326 -0.113642916 0.11649614 0.033441193 0.25702843 -0.054593116 0.0062175766 0.26507795
-0.053326685 -0.1691101 -0.010611585 0.031889666 -0.11980719 -0.03306166 -0.15586244 -0.051842775
-0.023585059 0.3994139 -0.34018585 -0.47033828 -0.12547281 -1.5060403 0.005211051 0.010271906
0.02581441 0.0010892359 -0.08610634 -0.13890769 0.047327396 0.004284648 0.13767108 0.10590275
-0.09140809 0.08002018 0.03893346 0.105692565 0.18951766 0.08748871 -0.0468462 0.1464433
0.14240672 0.12760335 0.16671346 -0.01576176 0.012914793 0.0879533 -0.12389901 -0.01462058
0.0020470861 0.028385062 0.02952034 -0.110158056 -0.2405092 0.12553054 0.26212528 -0.17141658
-0.36839816 -0.09594108 -0.625613 -0.14017458 -0.0663403 0.028153984 -0.009267103 0.0930884
-0.082811825 0.117010765 -0.09458674 -0.10166456 -0.012365314 -0.049122076 0.16226877 0.0668884
0.09385525 0.04622466 0.004520081 0.0122210495 0.06103124 -0.17609961 -0.088404715 0.091303565
-0.090928644 -0.037231598 -0.39316908 -0.92133236 -0.030216461 0.011284396 -0.13112476 0.233462
-0.103038676 -0.042257953 -0.44529802 -0.06591714 -0.27537084 0.19577233 -0.005004778 0.21652085
-0.15307593 0.12259526 0.1555278 0.08132908 0.1630437 -0.34947646 0.01621194 0.2183045
-0.018414937 -0.030927382 -0.066048786 -0.10947095 0.19835897 -0.24410851 0.12516034 -0.13315998
-0.20930563 0.066973574 -0.16830769 -0.08752005 -0.034485154 0.007818264 0.10107934 0.036952205

fc1.bias f4 [64]
00000000: bf52 533e 0050 05be a8b0 f5bd f990 76bd
00000010: 1fe6 723e 9dd2 6cbd 9f3d d7bd 80e6 f43c
00000020: 7b9b 213d facd 2dbe 037a d83d 5d34 d93d
00000030: d582 2d3e 5f17 ef3d 51d7 b7bd b555 80bd
00000040: e141 bb3c 4927 dfbd 18bc dc3c 8086 67be
00000050: 3ed7 1abd 2d7d 903d 64a5 4fbc 8c52 73bc
00000060: c774 29be b5d3 363e de65 1c3c 1395 ffbd
00000070: fef8 1e3e 80c7 243e 765e 3dbd 03c6 c2bd
00000080: b697 113e de1e 93bd 9972 2bbe 44d2 4e3d
00000090: 5794 63bd 970a bc3b eef9 dcbc adaf bcbd
000000a0: 1fa0 75bd 1d94 e4bc 81fc 9ebd d54f 853e
000000b0: 442c 3abd b9f8 dabd d604 3abc 7abc c0bd
000000c0: 43c1 d2bd 7618 5b3c 6bc6 03be 5baa 1b3e
000000d0: 2f63 2dbd e660 efbc e475 51be fcec 2bbd
000000e0: ca49 2f3e f36b babd a5f4 a8bd 4d01 f4bd
000000f0: 5f62 d83c 9cb3 9f3d 6e99 ae3c 0fa4 533c
0.20637034 -0.13018799 -0.11996585 -0.06019685 0.23720597 -0.057818044 -0.105098 0.029895067
0.03945492 -0.16973105 0.10570147 0.10605691 0.1694444 0.116743796 -0.08976615 -0.06266347
0.022858562 -0.10896165 0.026945159 -0.22609901 -0.037802927 0.070551254 -0.01267371 -0.014851224
-0.16548453 0.17854197 0.009545771 -0.124796055 0.1552467 0.16091728 -0.046232663 -0.09510424
0.1421803 -0.07183622 -0.16742934 0.050493494 -0.05556139 0.005738567 -0.026974645 -0.09213195
-0.059967156 -0.027902657 -0.07763005 0.2603747 -0.04545237 -0.10691971 -0.011353692 -0.09410949
-0.10290768 0.013372531 -0.12868659 0.15201704 -0.042330917 -0.02922101 -0.20455128 -0.041974053
0.17117992 -0.09102621 -0.08249787 -0.119143106 0.026414094 0.0779793 0.021313395 0.012917533

fc2.weight f4 [64, 64]
00000000: 3509 203e 0297 e0bd cde8 0d3e 4925 5f3d
00000010: e2ba 1ebd 63e2 94be f307 dabd 9d06 803c
00000020: 99c7 5a3e 3e95 b9bd 6f8e 33be 8bdc 33be
00000030: b58c 06be 14ea 043e 8912 b9bd 7645 52be
00000040: aa09 94be 9a4c adbe 6b44 9ebe 2a4b c8be
00000050: 7209 fbbc 017c 34bc 6edc 853d f833 44bd
00000060: 63e0 56be dd64 5dbe 4c88 04bc 7232 363e
00000070: 9d1a b93d f76d 6ebd bccf ce3d 4ca7 adbe
00000080: 22d6 83bd 3a94 e6bd aaeb b23d 73a4 c3bd
00000090: 349f c1bc 000b de3d 42fe fb3d f461 ecbe
000000a0: d2ee bdbe cf8a 0bbe 5f4a 303d 6907 2abd
000000b0: 2154 7e3d b5c6 6d3e 12de d7bd 1913 4abd
000000c0: 2200 9d3d 842f d4bd 0f77 eb3b 68ce 58be
000000d0: 308a 09bf b660 96be 12be 95bd bc3d 21bd
000000e0: 615d 1dbc 7944 cfbd 5553 0ebe 6a6f 3abd
000000f0: 0083 eb3d 6dc7 293e aeb7 54be a3b4 873b
00000100: d926 883d 8c49 123e 4b88 f4be 6e30 053e
00000110: 7419 c13c 5c48 0e3c 6140 8ebe a387 2e3e
00000120: a17b af3b b22c c8bc 1229 49bd 75e0 d5bd
00000130: e248 913d e1e7 6c3d 31fa 5abe 52a2 0cbe
00000140: b985 03be 1689 9f3c a8ba 77be 15d3 963c
00000150: 398a eabd 7769 19bf 77d0 a63d c4ba a9be
00000160: b687 0bbe 576b 893d 84b9 1c3d 233b 63be
00000170: 0b23 093d 07c1 95be ab89 893e 2c92 fdbe
00000180: e5b7 80be 2b77 af3b a2c6 243e d85e 09bf
00000190: 7273 48bd 331f 0a3e 4e8d 8f3e 1b0b 00be
000001a0: de9b 453e ae10 8fbd 139a c1bd e4b4 6ebe
000001b0: c0f8 d33c de3e 283d a8bb 83be 41c4 6abe
000001c0: 726e 36be 8b89 00bf af0a 203d f08e bbbc
000001d0: d2ca aebd 9f9c 17be 1d15 54be ae37 0e3e
000001e0: 2db5 2abe 0aa9 a73d aab9 fc3d fa43 873e
000001f0: acc3 62be e6a1 edbc 5cc9 4a3c c33a b9bd
00000200: eb06 9abd 06af d2bd c605 dabd 220a 38be
00000210: d210 bc3d 118f 2e3c 4c36 10be 79c1 713c
00000220: bbbd 223e ca93 733d 43d3 aa3b 07e1 85bd
00000230: a36d dc3c 9be4 043d 2e0b 38be 7e05 aabe
00000240: 9e09 c5bd 875d f83d f9b9 1d3e a847 813c
00000250: 7d23 81be f805 b23c 7d1a d63d 696f 72be
00000260: 1ffa 963a c8ba 26be 90f9 653d 9ecb d83d
00000270: 3daf 33be d155 873d 8692 ffbd e029 ba3d
00000280: c9f9 5f3d 2fa3 8dbe 19b7 9cbe d9e9 963b
00000290: 53a6 c53d 464c dc3c 033e c1bc aa1a c63e
000002a0: 5b62 983d 93de b93d 164d 7fbe be3e 17be
000002b0: bd53 443b 8b06 78bc e184 323d bca0 cc3d
000002c0: fc37 823c 44d6 58bd c870 243b 8f88 953d
000002d0: 7c7a b4bd 65e9 e8be 8894 a3bd ed7d 08bd
000002e0: c6d4 22be c025 babd 5a8a 533e 13b4 2f3e
000002f0: 5b6f 10be a42c ff3d 504b 9f3d de95 f93c
00000300: a9ba 34be 695d 8ebe a46d 433e 490e 34be
00000310: 5295 9abd 6725 e7be 957c 1c3e 1c4c 53be
00000320: ccdf 54be 2013 b4bd 04b0 ddbd aa8b f1bb
00000330: 71da 67bb d5cb 153e fd6e 613d f3aa 5bbe
00000340: d3df 8c3d 0907 123c 08f8 8cbd cbb2 32bd
00000350: 6225 c33d aa9f af3d 418b 60bd 7365 2cbe
00000360: 7d92 2d3e 3f2f 62be 1a27 bbbd 49f2 5fbd
00000370: d38a 203e 6a3a df3d da78 7fbe 7014 18bd
00000380: 6275 573d 48c6 d8bd 402c 043e 5a81 e93c
00000390: ffcb da3b 5502 18be fc39 813c fa48 193e
000003a0: 4538 83be 7442 db3c 7505 61bd a047 d5bd
000003b0: 098b 08bc 3796 04bd 9bfa 1a3c 5502 9abe
000003c0: af78 003d fe29 8bbd 1eb3 d63c 5676 2e3e
000003d0: f8ce bebb 8e5f bfbd 8c1f 4cbe b53a a43d
000003e0: e8f0 16be 50ab 1fbe a193 2dbe b541 85bc
000003f0: 0049 9abe 9110 cc3d b446 97bd 5d2a 573d
0.15628512 -0.109663025 0.13858338 0.054478917 -0.038752444 -0.2907897 -0.106460474 0.015628153
0.21365203 -0.09061669 -0.17534803 -0.17564599 -0.13139613 0.12979919 -0.090367384 -0.2053431
-0.28913623 -0.33847505 -0.30911574 -0.39119846 -0.030644152 -0.011015893 0.06536184 -0.047901124
-0.20984034 -0.21620508 -0.008089136 0.17792681 0.09038279 -0.05821034 0.10098216 -0.339167
-0.06437327 -0.11258741 0.087363556 -0.095528506 -0.023635484 0.10841942 0.12304355 -0.46168482
-0.37096268 -0.1362717 0.043039676 -0.041510973 0.06209195 0.23220332 -0.105404034 -0.04933462
0.07666041 -0.103606254 0.0071858237 -0.21172488 -0.5372648 -0.2937066 -0.07311644 -0.039365515
-0.009604783 -0.10120482 -0.13898976 -0.04551641 0.11499596 0.16579981 -0.20773193 0.0041414066
0.066480346 0.14285868 -0.47760233 0.13006756 0.023571707 0.008684244 -0.27783492 0.17043929
0.005355314 -0.024435375 -0.049111433 -0.104432024 0.070939794 0.057838324 -0.21384503 -0.13733795
-0.1284398 0.019474547 -0.24192297 0.018411199 -0.11452145 -0.5992655 0.0814523 -0.33150303
-0.13625988 0.067099266 0.03826286 -0.22190528 0.033480685 -0.2924883 0.26862845 -0.49525583
-0.251403 0.005354782 0.16091397 -0.53660345 -0.048938222 0.13488464 0.28037494 -0.12504236
0.1929774 -0.06985603 -0.094532155 -0.23311192 0.02587545 0.04107558 -0.25729108 -0.22926427
-0.17815569 -0.50209874 0.03907269 -0.022895306 -0.08534779 -0.1480584 -0.20711179 0.13888428
-0.16670676 0.081865385 0.123401 0.2641905 -0.22144955 -0.029007863 0.012377109 -0.09044411
-0.07520851 -0.10287289 -0.106456324 -0.17972615 0.09182896 0.010654227 -0.14083213 0.0147556
0.15892689 0.059467115 0.0052131726 -0.06537061 0.026907748 0.032444578 -0.17973015 -0.33207315
-0.09620975 0.12127214 0.15402974 0.015781239 -0.25222388 0.021731362 0.10454271 -0.23675312
0.0011518634 -0.16282189 0.056146204 0.10585712 -0.17547317 0.06608165 -0.12479119 0.09090018
0.054681573 -0.27663562 -0.30608442 0.0046055135 0.096508645 0.026891839 -0.02358914 0.38692218
0.07440635 0.09075656 -0.2493175 -0.14770028 0.0029957138 -0.015138279 0.043583754 0.09991595
0.015895836 -0.052938715 0.0025091637 0.07301437 -0.088124245 -0.45490566 -0.079873145 -0.033323217
-0.15901479 -0.090892315 0.20658246 0.17158537 -0.14104979 0.124596864 0.077780366 0.03046697
-0.1764933 -0.2780564 0.19084793 -0.17583574 -0.07548012 -0.45145723 0.152819 -0.20634502
-0.20788497 -0.0879271 -0.10824588 -0.0073713856 -0.0035378004 0.14628537 0.055037487 -0.2145193
0.068786286 0.00891281 -0.06883246 -0.04362754 0.095286146 0.085753754 -0.054820303 -0.16835575
0.16950412 -0.22088335 -0.091383174 -0.05467442 0.15677957 0.108998135 -0.24948445 -0.037128866
0.05260218 -0.10584694 0.12907505 0.028504062 0.0066771503 -0.1484464 0.01577472 0.14969245
-0.25628868 0.026765086 -0.054936845 -0.10414052 -0.00833393 -0.03236982 0.009459163 -0.30079904
0.031365093 -0.06795119 0.026208457 0.17037329 -0.0058230124 -0.093443975 -0.19933909 0.0801901
-0.14740336 -0.15592694 -0.16950847 -0.016266683 -0.3013382 0.09964097 -0.073865324 0.052530635

fc2.bias f4 [64]
00000000: 8aef d8bb a746 cbbd 33ac 4f3c d438 133d
00000010: 07d7 453e 2c9f debd 9004 17be 070d 4d3d
00000020: 2647 f93b 1d3e ed3d d24b a6bd 59a6 8c3d
00000030: cabd ffbc e2f6 b9bd e402 9cbd c20b 4c3e
00000040: 6f19 a03b 3ca6 f8bc 4736 d0bd 187f 653d
00000050: a8fb 173e eb81 bb3d a40c 7a3e 1ef9 00be
00000060: d5fb 21be 57c2 fabd ae04 8b3d fd14 cabd
00000070: 0824 49be d758 2b3d be09 473d 2868 9bbd
00000080: c77d 5e3d 1e28 1dbd 1bd7 0e3d a694 b4bd
00000090: db17 d9bd 854b 12be 2cf3 0d3e adb3 4c3c
000000a0: de93 23be 8dd6 df3e 1d1d cb3c 7e85 2bbd
000000b0: 1bc4 803b 1172 c5bd d7a8 6cbd 4822 04be
000000c0: b8de 3fbb 7790 2ebe 792a 39be 9887 d33d
000000d0: d036 b0bd 6b76 adbc d940 9a3c 2735 10be
000000e0: 2fab e6bd 60a0 d7bd 6abd 4dbc edec 08bd
000000f0: 9dfa 443d 4ff6 953d af59 133e 71ab 39be
-0.006620352 -0.09925585 0.012675333 0.035942867 0.19320308 -0.108702034 -0.14747834 0.050061252
0.0076073585 0.11584113 -0.0811993 0.06867666 -0.031218428 -0.09080292 -0.07617739 0.1992636
0.0048858444 -0.030352704 -0.101666026 0.05602941 0.14842093 0.09155639 0.24418885 -0.1259503
-0.15818723 -0.12244099 0.06788002 -0.098672844 -0.19642651 0.04183277 0.048593275 -0.075882256
0.05431917 -0.038368337 0.03487311 -0.08817415 -0.10600253 -0.14286621 0.13862294 0.01249401
-0.15974376 0.43718377 0.024794156 -0.041875355 0.0039296276 -0.09640897 -0.057778206 -0.12903702
-0.0029277038 -0.17047296 -0.18082608 0.10328597 -0.08604205 -0.02117463 0.01882975 -0.14082776
-0.112631194 -0.10528636 -0.012557367 -0.033429075 0.048090566 0.0732237 0.1438968 -0.18131806

value_fc.weight f4 [1, 64]
00000000: 0158 86be ce93 d53e 1a62 2b3e db28 8abd
00000010: 4d8e 843e fe08 823e 5f34 ab3d 5ebc 73bd
00000020: 769e d23e fb6f e83d 2bec 23be addb 0e3f
00000030: fbaa 83be 8ec7 85be 3a65 59be d836 4f3e
00000040: 4810 af3d 6962 023e a166 90bc 19ea 3f3e
00000050: 728b 153e d83a 623e 763e 4f3e dad7 c5be
00000060: 9a68 a2be 8a1a 57bd 0232 89be bd2c 02bf
00000070: 37af 42be c47c 443e 3a43 653e 6fa5 e03e
00000080: 34f5 463e dd13 e03e 164e 6e3e 8562 eb3e
00000090: 8974 b93e dfb5 fcbe 6ffe 5b3e 4e11 893e
000000a0: efa3 ef3e 3c14 7c3e b949 933e 0d8b 93bd
000000b0: aa14 20be 472c a13e 1e7a 2abe c245 993e
000000c0: 2a51 57be a42d 7c3e 9ec8 b2bd 99f5 e13e
000000d0: ff3b 953e 6bc0 9bbe 46f8 0c3e 947e 2cbe
000000e0: e72f b1be 786e 11be 6849 c03e 92a0 b73e
000000f0: 5f32 32be 27f3 373e 775e 7a3e 1f3f 123f
-0.26239017 0.4171433 0.16736642 -0.06746074 0.25889817 0.25397485 0.08359598 -0.059505813
0.4113652 0.113494836 -0.1600806 0.5580395 -0.25716385 -0.2612881 -0.21230021 0.20235765
0.08548027 0.12732853 -0.017627062 0.18741645 0.14603975 0.2209276 0.2023867 -0.38641244
-0.3172043 -0.052515544 -0.26795965 -0.50849515 -0.19012152 0.1918822 0.22388926 0.43876216
0.19429475 0.43765154 0.23271975 0.45973602 0.36221722 -0.49357507 0.21483777 0.26771015
0.4680476 0.24617094 0.28767183 -0.07204256 -0.15632883 0.31479093 -0.16648147 0.29936033
-0.21027055 0.24626786 -0.08729671 0.4413269 0.29147336 -0.3042024 0.13766584 -0.1684516
-0.3460686 -0.14202297 0.37556005 0.35864693 -0.17402028 0.17963849 0.24450098 0.57127565

advantage_fc.weight f4 [4, 64]
00000000: 9263 743e 7d1e a3bd 13c5 2bbe e52c 353e
00000010: f76e 973d 4333 ffbd 5c2d 4a3c 53c5 f0bd
00000020: be79 633e d28a e03c c8db eb3d b469 d4bc
00000030: bb66 1c3a 8189 a9bd f25e 033f b792 47be
00000040: 148e e2bc 3f35 2fbe c41e 6d3c 593c 313d
00000050: ca95 6f3d 3d38 ccbd 25e1 cf3d cb7f d93e
00000060: 5b08 ccbd bc00 8a3d 0deb 543e bdd7 183f
00000070: dd11 c33d 1aa0 96bc 1016 b8bc daff fe3d
00000080: 780a 85bd 43ef 883e d991 6b3c 5b47 afbd
00000090: ec91 d8bd 8a43 273e 7d34 323e b3b8 7abc
000000a0: 159a 44be 7b3c 61bd b5b1 51be d660 45be
000000b0: 8d6e cb3d f6a1 14be 593f 4e3d 50a9 77be
000000c0: 9db8 8b3e 307b f3be 6c6b 533c d940 483e
000000d0: ab86 59be 2b22 8fbe c3ec 00bb 2a75 643e
000000e0: 348c 35be 69cb bb3e 18ef 75bd 2792 a7bd
000000f0: b46f e1be 8313 c7bd 4719 b93d fa45 23bf
00000100: 9ce4 8a3e e495 ac3e 4528 cfbd 4960 743e
00000110: 7076 a3bc 232d df3e 7d0d 5f3d 0611 14be
00000120: e656 9fbc 857a ff3c f629 473e af93 6c3e
00000130: d2b7 743d 7169 183d f219 923e 738c 823c
00000140: c17b 86bc 79bf d3bd cf1b 66bc 4e74 91bd
00000150: 6698 023e c266 29be efa9 253d 14df c33e
00000160: 6487 7a3d 35ce bebc d612 acbe 094d 973e
00000170: be9d 1f3d 9b6d 8abc de3a 813d 8baf 47bb
00000180: 4729 23bd fe41 a9be 68dc 253b 81af 3b3e
00000190: 0f06 783c 5ab1 b13d 4192 d33d a7d1 a63b
000001a0: 6d8d 11bd 2a5e d73c 4391 c73c 7ca2 cbbd
000001b0: b015 913e 0e84 303d cfd9 683d b6f9 d03e
000001c0: 3e82 633e 9365 5f3e 5756 ef3d 5906 a43d
000001d0: c738 cd3e 5b5b 993e 7306 303d 5c85 503e
000001e0: d462 d13c 8905 bb3e 6d42 003d 4752 6fbd
000001f0: d3dc 823e fece 95bd 6bed 4ebd 853c 813c
00000200: c1e6 5cbd f395 10be 6a70 2e3c 5652 e3bd
00000210: 532f 35bd d49e 64be 6ae8 fb3b 049e cd3d
00000220: c95c ca3c d517 b93d c065 89be f641 f13e
00000230: e627 f0bc a3f8 c63e b613 02bf bc73 3d3d
00000240: 724d 87be c8dd 873d ee08 b63d 1f46 843d
00000250: 9646 283e a867 8ebe 0328 1e3d 14c6 5fbe
00000260: 0fac 1cbe a7f7 5dbd 0520 c83e 7409 c4be
00000270: ee1e 56bd cd46 3bbe 8d51 303e 8280 40be
00000280: 20b1 d5bc 65af 2cbf 5aec cabb ba50 e5be
00000290: 6be2 813d 476a 1d3e 3927 2ebe 8741 a3bd
000002a0: 95de 8d3e 0e78 743d f565 a1be ddb6 103e
000002b0: 2453 24be 7af8 4e3e fef6 54be 0e09 9fbe
000002c0: 1c11 d5be b3c8 65be 00f4 f8b7 9aab c3bd
000002d0: 7b7d 9dbe 1617 cc3d c704 333e b631 c7be
000002e0: d796 fc3b 1985 03bf 65ee 3d3c f391 d83c
000002f0: c2fc 6b3e e8d8 43bd 8b22 a8be d929 473e
00000300: a1f3 903d 306b a6be 0487 243e 15c1 68be
00000310: eeba 9cbd e087 8cbe 31f2 88bd 9c7e 793d
00000320: a7d1 ffbc 8aa4 cfbd 0e2d 973d 7f57 4ebf
00000330: 7f89 cd3d 582d 09bf 2fff e33e 6811 d23d
00000340: 8113 a73e ce4e 113d be82 7a3d 1ae9 bfbd
00000350: e6f9 9f3d 668a 863e f4c4 673d b522 47be
00000360: a9b7 493e fedf 9a3d e83a 8f3d ccc1 013f
00000370: 4be2 b13d a5e4 443e ed83 14be cdfe c13d
00000380: a924 f8bd 731e ec3d 1eb9 093e fec6 1c3e
00000390: d1f0 3cbe ca2e 133e 5bc0 1bbe 6928 a33e
000003a0: f73a 073c 58bd 23bd 6736 b03e 30ac 6c3e
000003b0: 87f4 ccbe a472 01be ab9e 3e3e 07a4 b7be
000003c0: 8a8b e2bd cd9f 543e 6368 14bd d0c9 ccbd
000003d0: eede 35be f7e6 613e 5415 0ebd be38 5c3c
000003e0: 65bc 1cbd 8f7a 9d3e 58a1 0dbe dec0 89bd
000003f0: 5180 e7bd 3903 003e b584 203e fe65 e7be
0.23866108 -0.079647996 -0.16774397 0.17692907 0.07394212 -0.12460949 0.012339916 -0.117563866
0.2221441 0.027409945 0.11516529 -0.02592931 0.0005966236 -0.0827818 0.5131675 -0.19489561
-0.027655639 -0.17110156 0.014472667 0.043270443 0.05849246 -0.09971664 0.10150365 0.4248031
-0.09962531 0.06738421 0.2079279 0.5970419 0.095248915 -0.01838689 -0.022471458 0.124511436
-0.064961374 0.26745042 0.0143780345 -0.08558532 -0.105747074 0.16334358 0.17402835 -0.015302825
-0.19199403 -0.05498932 -0.20477946 -0.19275221 0.09933195 -0.14514908 0.05035338 -0.24185681
0.27289286 -0.47554922 0.012904029 0.19555987 -0.21242778 -0.27955756 -0.001967237 0.2231032
-0.17729264 0.36678627 -0.06004247 -0.08182173 -0.44030535 -0.097205184 0.090380244 -0.6377865
0.2712754 0.33708107 -0.10115103 0.23864855 -0.019953936 0.43589124 0.054456223 -0.14459619
-0.019450616 0.031186352 0.194496 0.23103212 0.059745617 0.03720993 0.2853542 0.015936112
-0.016416432 -0.10339255 -0.014044716 -0.071022615 0.12753448 -0.16543105 0.040445264 0.38256133
0.061164275 -0.023291687 -0.3360812 0.2955096 0.038968794 -0.016897967 0.06310056 -0.0030469622
-0.039834287 -0.3305816 0.0025308374 0.18328668 0.015138163 0.08676405 0.1033063 0.0050909105
-0.035535265 0.026290018 0.024361258 -0.09943101 0.2833686 0.043094687 0.056848343 0.40815514
0.22217652 0.21816091 0.1168639 0.08009023 0.4008238 0.2995251 0.0429749 0.20363373
0.02555982 0.3652766 0.03131335 -0.058428075 0.255591 -0.07314871 -0.05051939 0.015775928
-0.053931 -0.14119701 0.010646919 -0.11099689 -0.044234585 -0.22326213 0.007687618 0.10039905
0.024702447 0.09037749 -0.26835442 0.47120637 -0.0293159 0.3886157 -0.50811327 0.04625295
-0.26426274 0.06634098 0.08888422 0.06458687 0.16433176 -0.27813458 0.038612377 -0.21852905
-0.1530001 -0.054191258 0.3908693 -0.38288462 -0.05227559 -0.18288727 0.17218609 -0.18799022
-0.026085436 -0.6745513 -0.006192726 -0.44788152 0.06342014 0.15372573 -0.1700715 -0.07971483
0.2770888 0.059684806 -0.315231 0.14132257 -0.1604734 0.20211974 -0.20797345 -0.31061596
-0.41614616 -0.22439842 -2.9677525e-05 -0.09554215 -0.30759797 0.09965341 0.17482291 -0.38905114
0.007708411 -0.51374966 0.011592482 0.026436782 0.23045638 -0.04781428 -0.32838854 0.19449557
0.070777185 -0.32503653 0.1606713 -0.22729905 -0.076528415 -0.27447414 -0.06686819 0.06091176
-0.0312279 -0.10138805 0.073816404 -0.8060226 0.10035991 -0.53584814 0.44530627 0.10257226
0.32632068 0.035475545 0.06115984 -0.093706325 0.07811336 0.26277465 0.056584314 -0.19446833
0.19698967 0.07562254 0.06993657 0.50686336 0.0868574 0.19227846 -0.1450345 0.094724275
-0.12116367 0.11529245 0.13449523 0.15310284 -0.18451239 0.14373317 -0.15210097 0.31866768
0.008253804 -0.039975494 0.34416506 0.2311256 -0.4003031 -0.12641388 0.18615215 -0.3586733
-0.11061771 0.20764084 -0.036232363 -0.0999943 -0.17760822 0.22060762 -0.03468831 0.013441263
-0.038265605 0.30757567 -0.13831079 -0.067262396 -0.11303771 0.1250123 0.15675624 -0.45195

advantage_fc.bias f4 [4]
00000000: 8c5d a33c 96b4 cebd a826 ddbd 7e29 99bc
0.019942068 -0.10093038 -0.10798389 -0.018696543
